p1_navigation/checkpoint.pth (torch, 32063 bytes, 18 tensors)

fc1.weight f4 [64, 37]
000000 10 02 56 bf 4c c9 9a bc 31 f9 cd 3d 70 99 fb bd
       -0.835969 -0.018894814 0.10057295 -0.12285125
000010 bb 71 07 bf db 67 01 bf a7 54 97 3d 66 59 11 3e
       -0.52907914 -0.50549096 0.07389193 0.14194259
000020 ed e8 2d 3d 4e 4d d1 3d 88 fc 88 be f7 f0 91 be
       0.042458463 0.10219823 -0.26755166 -0.28504154
000030 55 46 a2 bb df 2a 58 be 45 11 3d be 50 ed 44 3e
       -0.004952232 -0.21110104 -0.18463619 0.19231153
000040 1c 03 b3 3d 0d 7a 0d be 6a 2f ec 3d 20 05 a7 bd
       0.087408274 -0.1381609 0.11532481 -0.081552744
000050 41 3d cd 3b 19 e9 50 3d 8b 3d 0a 3e 5e 0a 4c be
       0.0062634056 0.05100355 0.1350004 -0.1992583
000060 4a 43 f2 3d ac b7 9e be 74 29 0f 3e 5a 21 51 3e
       0.118292406 -0.30999506 0.13980657 0.20422879
000070 9c cd 23 bf 52 c0 64 be fc 8e ac be ad 2b 8b bd
       -0.6398561 -0.2233899 -0.33702838 -0.0679544
000080 99 42 de bd 5e c6 01 bd 7e c7 97 3e 21 b2 f4 3b
       -0.10852546 -0.03168332 0.29644388 0.0074675237
000090 32 c8 4e bd 71 74 fb 3c 89 94 5a 3d 6a 36 d5 bc
       -0.05048389 0.030695172 0.05336431 -0.026026923
0000a0 ad 25 c6 3d 77 dc 3b be 1f 68 d0 be 9a f8 0c be
       0.09675155 -0.1834582 -0.40704438 -0.13766709
0000b0 ca 49 ac bd ee 15 3a 3e af e2 2f 3f 8c a2 00 be
       -0.08412512 0.18172428 0.68705267 -0.12562007
0000c0 f6 38 d1 3c ce 8b 2c bd ae f2 60 3d 91 5b 2c 3b
       0.025539856 -0.042125516 0.054918937 0.0026299695
0000d0 a2 d3 5b bd 88 aa 2d bd 41 6d 3c 3d d2 5b e2 3d
       -0.053668626 -0.04239896 0.04600263 0.110526696
0000e0 6d ef 6b 3e b4 75 85 be a9 df 4c be 02 d8 9b bd
       0.23040552 -0.26066363 -0.20007195 -0.076095596
0000f0 c6 5d 25 ba 1c 3b 48 3e d5 41 18 be d8 3b 95 bd
       -0.0006308224 0.19553798 -0.14868863 -0.07286805
000100 35 68 39 bd 3e 62 18 3e af a1 cc 3e 21 d3 42 bd
       -0.045265395 0.14881226 0.39967105 -0.04756463
000110 a5 e2 16 be 38 aa 70 3d cb 73 4e 3e 18 91 de 3e
       -0.14734896 0.058756083 0.20161359 0.43470073
000120 e4 7d 0e 3d b4 82 d7 bb 81 15 98 bd ba 72 65 bd
       0.034788027 -0.0065768603 -0.074259765 -0.056017615
000130 6b 5d 16 3e b8 08 eb 3d 54 88 66 3e f6 d9 7b bf
       0.14684074 0.11476272 0.22512943 -0.98379457
000140 69 fd bd bd 42 7e 40 3e 0b d4 b4 3d 68 a6 a2 be
       -0.0927685 0.18798164 0.088295065 -0.31767583
000150 9b 05 24 be 82 d1 3a be 23 9e 39 bd 41 f7 f9 3d
       -0.16017763 -0.18243983 -0.045316827 0.12205363
000160 9f 37 99 3e 40 f3 29 be 1a 62 1a 3e 4d 2c ea bd
       0.29925248 -0.16596699 0.15076485 -0.11434231
000170 f2 54 71 3e b0 2f 8d 3e e3 07 cd be f0 9a 68 bd
       0.2356756 0.27575445 -0.4004508 -0.056788385
000180 96 a6 2a 3b e0 e2 e5 bd ad 48 42 3e 62 f1 6d be
       0.0026039234 -0.112249136 0.18973036 -0.23236611
000190 8a fe 82 3e 87 de 9f bd ad 10 56 be aa 70 bb 3c
       0.25584823 -0.078061156 -0.20904799 0.02288087
0001a0 3e 39 e0 be 38 c9 a3 bd ce 63 fe bc bc 5f 3a be
       -0.43793672 -0.07997364 -0.03105345 -0.18200582
0001b0 92 ad a7 bd da 9d 80 3c 13 34 88 3c 76 43 1e 3e
       -0.08187403 0.01570027 0.016626393 0.15455422
0001c0 96 5e c0 be 2f bd 97 3d bd 5b 2f 3d a0 36 bf bd
       -0.37572163 0.07409131 0.042812098 -0.09336591
0001d0 0e df b1 be e9 d4 71 be 84 58 ce 3c 41 2f 75 be
       -0.3474049 -0.23616375 0.025188692 -0.23943807
0001e0 a4 bf 9e bd 16 05 2b 3e e6 66 ad be 29 6f 7f be
       -0.07751396 0.16701159 -0.33867568 -0.24944748
0001f0 3a 18 d6 be ed c0 8e bd f4 6b 18 3e e6 a5 02 bf
       -0.41815358 -0.069703914 0.14884931 -0.5103439
000200 f4 99 db bd c8 78 38 bf 9a a0 1f bf dd 18 dc bd
       -0.107227236 -0.720593 -0.62354434 -0.1074693
000210 06 b0 af be c7 e2 10 bc 5e e9 24 3e fb c9 ef 3b
       -0.34313983 -0.00884313 0.16104648 0.007317779
000220 35 d1 63 bf f2 48 1f bf f0 fd 2c 3e 82 32 1d 3e
       -0.889911 -0.6222068 0.16893744 0.15351298
000230 f8 91 f7 bb d4 a7 a0 3d df 37 e2 bd 51 40 3d 3e
       -0.0075552426 0.07844511 -0.11045813 0.18481566
000240 58 54 29 bf f2 54 da be d3 b6 0b be 98 80 e7 3c
       -0.66144323 -0.42642933 -0.1364396 0.02825956
000250 5e f7 03 be 80 c7 95 bd be 7e 8b bc 3c 50 4c be
       -0.12887332 -0.07313442 -0.017028209 -0.19952482
000260 48 68 1a 3d 9a 4d cb 3e 82 d0 48 3d 8c 20 f5 be
       0.037697107 0.39707643 0.049026974 -0.47876394
000270 a7 e8 2e bf 1a 0a d4 bf 4d a1 06 3d 47 d1 90 bd
       -0.6832375 -1.6565583 0.032868672 -0.070711665
000280 2c 1c 16 bd a6 d3 7f bd 92 5a a0 bd 4a 5f c6 bd
       -0.03664796 -0.062457703 -0.07829775 -0.09686144
000290 70 d9 4f bd 82 22 28 bd 9d de 29 bc 9f 1b 20 3e
       -0.050744474 -0.041048534 -0.010368017 0.15635537
0002a0 d9 dd 7a bd 25 60 d6 bc c1 e8 e1 bc 21 40 bf 3d
       -0.061246727 -0.026168892 -0.027576806 0.093384035
0002b0 6f 19 7b 3c 61 7f 56 bd 3e 4b 80 bd 6a 81 f4 3d
       0.015325888 -0.05236757 -0.06264351 0.11938746
0002c0 de 66 eb 3d 11 2d 80 3e 0d 7d eb bc 0d 98 77 3c
       0.1149423 0.25034383 -0.028746152 0.015111935
0002d0 96 60 52 3d a6 90 74 3e bb 71 4e 3e 29 7d c5 3b
       0.051361643 0.23883304 0.20160572 0.006026883
0002e0 f5 12 13 3c 54 0a 7c 3d 4c 08 09 be 4a 04 0e be
       0.008976688 0.061533287 -0.13382071 -0.13868824
0002f0 30 33 54 be 94 79 2a be 94 31 e0 bb d9 79 e3 3d
       -0.20722651 -0.16647941 -0.0068418477 0.11107225
000300 d5 c7 c4 bd f6 b6 d9 be 3b f7 7f bf 06 08 85 bd
       -0.096084274 -0.425224 -0.9998662 -0.06495671
000310 cf ef cb 3d 4c 9d b2 be 38 2b 21 be cf fd cb be
       0.09957849 -0.34885633 -0.15739143 -0.39842078
000320 8a 7b 7c be 34 ee 52 3e 76 1b 9e 3d 05 14 50 be
       -0.24656501 0.2059868 0.077200815 -0.20320137
000330 06 cb 4e bf 47 6a 90 3e 3b e2 5e be cc d5 b3 bd
       -0.8077854 0.28206083 -0.21765988 -0.08781013
000340 32 d9 a6 be c9 d9 c8 bf 18 87 2a be a4 dc ac 3e
       -0.32587582 -1.5691463 -0.16653097 0.33762085
000350 33 0c 94 3d 04 a4 4e bf 07 f0 b6 bf 05 24 52 3d
       0.07228889 -0.8071902 -1.4292 0.051303882
000360 8d 56 e1 be 79 6f 02 3e 67 b8 57 be a8 a7 de bf
       -0.44011346 0.12737836 -0.21066438 -1.7394915
000370 70 25 c4 3c 88 d6 36 3d 47 76 0f 3e 26 6a 8c 3a
       0.023943633 0.044638187 0.14009963 0.0010712787
000380 c7 7e bf bc 16 be 30 3c d3 93 a6 be 5e 7c 75 be
       -0.023375882 0.0107875075 -0.32534656 -0.23973224
000390 f6 43 48 3d 06 ed e4 3d d2 e6 b7 be e1 24 2c 3c
       0.048892938 0.11178021 -0.3591829 0.0105068395
0003a0 f1 bb 30 3e 96 12 f6 bc 49 02 e3 3d 6f 72 12 3d
       0.17259194 -0.03003816 0.1108442 0.035753664
0003b0 c6 42 1b be 45 80 9a 3d c2 ed 23 3d 1e a8 d5 bc
       -0.15162191 0.07543997 0.040021665 -0.026081141
0003c0 32 3f 97 ba fd 60 b9 3d 6f ea 92 be ce 12 2a bd
       -0.0011539219 0.09051702 -0.28694484 -0.04152184
0003d0 71 6d e6 3b c6 06 80 3e 7f 79 cc 3c 55 2e b9 be
       0.0070320894 0.25005168 0.024960278 -0.3616816
0003e0 9b 1d 7a 3d 1e 69 b5 bd df e6 c8 bc dd a8 82 3d
       0.06106339 -0.0885794 -0.02452415 0.06379864
0003f0 80 16 73 3e 21 5a fb be 86 53 0b bf af 26 db be
       0.23739052 -0.490922 -0.5442432 -0.4280295

fc1.bias f4 [64]
000000 45 01 f9 3b 45 ad b7 bd f5 8a 39 be 1e de 08 be
       0.0075990283 -0.089685954 -0.18119414 -0.13365981
000010 5b 0b 1d 3e 2a e1 63 bd c0 8d 22 be 33 4f dc bd
       0.15336363 -0.055634655 -0.15874386 -0.107572936
000020 44 db ae 3d 9f c2 3e be 6d 55 a9 3d 8e 64 6c 3e
       0.08537915 -0.1862893 0.08268247 0.23085234
000030 8c 71 0b 3e 34 6c 06 bd a9 2d 41 be 26 c2 69 be
       0.13617533 -0.032818034 -0.18865074 -0.22827968
000040 9c cc 5c bc 37 9a bb bb 61 4a a9 3c 5e a9 96 be
       -0.013476517 -0.005725171 0.02066535 -0.29426092
000050 78 dc 85 be a0 94 22 bd 2e 5d a0 bd c3 b3 de bd
       -0.26144767 -0.03969252 -0.078302726 -0.108741306
000060 02 43 07 be d5 ba 75 3e 1c a1 86 bd e5 c3 a1 be
       -0.13209155 0.23997052 -0.06573698 -0.31594768
000070 21 4d 20 3e e9 a5 ad 3d ef 18 70 bd 97 cf 85 be
       0.15654422 0.084789105 -0.05861753 -0.2613494
000080 9b 16 0f 3e e4 b8 fe bd 59 cb 54 be f6 c3 20 bd
       0.13973467 -0.12437609 -0.20780696 -0.039249383
000090 e2 a0 5d be a9 5e 3a bc e2 68 82 be e3 7a b0 bd
       -0.21643403 -0.011375108 -0.25470644 -0.08617189
0000a0 19 8f 13 be 40 cb 9c bd cc 40 14 be 8d fb a4 3d
       -0.14410056 -0.07655954 -0.14477843 0.08055792
0000b0 86 c5 a6 bd fa 51 6c be 40 cd a8 3d 9a 66 54 be
       -0.08143143 -0.23078147 0.08242273 -0.20742264
0000c0 3d d3 70 be 2d 7e 01 bd 9b 4d 3e be c7 1f 5a bd
       -0.23518081 -0.03161447 -0.18584292 -0.05325296
0000d0 32 b9 99 3c cc 72 6b bc 6c 33 48 be b1 3b 8d be
       0.018765066 -0.014370631 -0.19550866 -0.27584603
0000e0 89 31 b9 bd 04 b2 29 be 67 49 93 bd 2a 0a 61 be
       -0.09042651 -0.16571814 -0.07191735 -0.21976534
0000f0 0b dd a1 be 57 5f 3f bc 7a 1e 8d 3d 9a 5c 8d bd
       -0.31613955 -0.011680446 0.068905786 -0.06902428

fc2.weight f4 [64, 64]
000000 8c a6 8c bd 30 16 54 3e 1e f8 4e 3d d9 30 5a 3e
       -0.06867704 0.20711589 0.05052959 0.21307696
000010 c4 70 36 3e 2b 56 e7 3d 7d 69 45 3e b7 4b f6 3c
       0.17816454 0.11295732 0.19278522 0.0300654
000020 3c e6 21 3e 72 88 0f 3e 9c ba 07 3e ab c3 43 bd
       0.15810484 0.14016894 0.1325478 -0.047794025
000030 36 98 57 be 9f b2 bd 3e 3b 43 e0 bd c5 d6 2c be
       -0.21054158 0.3705034 -0.10950323 -0.16878803
000040 79 fc 91 bc e6 96 0e be 5f 94 91 3d 18 e0 95 3d
       -0.017820584 -0.1392475 0.07108378 0.07318133
000050 05 69 c3 3d 9e 7f 41 be ae 3f 34 3e a8 d6 01 3e
       0.09541515 -0.18896338 0.17602417 0.12679541
000060 61 e0 f0 bd bb c8 22 3e 5b f7 e1 3c 3f 15 9b bd
       -0.11761547 0.15896885 0.027583769 -0.07572412
000070 59 c7 2c 3c 91 74 4b bd 71 b6 a3 3d ba 55 88 3e
       0.010545575 -0.049671713 0.07993782 0.26627904
000080 ad 61 3a 3e 8e 73 64 3d a3 9c f5 3d 25 ed 8d bc
       0.18201323 0.055774264 0.11992767 -0.017324993
000090 77 fe 89 bd 06 45 2f 3d a0 d7 52 3e 84 7e b4 bd
       -0.067379884 0.042790435 0.20590067 -0.088131934
0000a0 2f 7c 56 be 8e 24 1f be 25 ed f7 3d 42 27 6b be
       -0.2094581 -0.15541288 0.121057786 -0.22964194
0000b0 86 51 a7 3d 7b bd 34 3e 7c 64 24 be 19 0b 17 3e
       0.08169846 0.17650406 -0.16053957 0.14750327
0000c0 52 70 85 bd 11 fe ef bc 38 d4 a0 3d b4 f9 84 3d
       -0.06515564 -0.029295953 0.078529775 0.064929396
0000d0 3a b7 8c 3d 5b e7 3a be 3a bc ed 3d cc 0e aa 3d
       0.06870885 -0.18252318 0.11608167 0.083036035
0000e0 42 d6 63 be d9 46 0e 3e 22 ff 73 be 12 a3 79 3d
       -0.22249702 0.13894214 -0.23827794 0.06094653
0000f0 cc 43 1f 3d ee df 92 3d c7 2f a1 bc da 90 d3 bd
       0.038883016 0.071716174 -0.019676102 -0.103303626
000100 13 1a 01 3d 62 38 4c 3e fb c6 11 3e e1 97 c6 bd
       0.031519007 0.19943383 0.14236061 -0.09696937
000110 1e 1b 97 3e d7 c8 d2 bd 1c 8e 74 be 23 ca b1 bc
       0.29512876 -0.102922134 -0.23882335 -0.021702832
000120 ad e6 93 bd 23 85 75 bb 0d df bf bc 21 dc 06 bd
       -0.07221732 -0.003746339 -0.023421789 -0.032924775
000130 6c 6a 0f 3d 60 53 33 3e c2 af ec 3b de 9d 80 3d
       0.0350136 0.17512274 0.0072231004 0.06280111
000140 30 57 a5 3e 59 66 c4 bd 6a d0 1a be 3a 19 cb bd
       0.3229308 -0.09589834 -0.15118566 -0.09916921
000150 6e 08 82 3e 99 bf 34 bc bd 06 a4 3d 0d 31 8b be
       0.25397056 -0.011032009 0.08009098 -0.2718586
000160 de 77 2f be d8 c9 3f 3d 17 19 92 bd d6 0a 81 be
       -0.1713557 0.046823353 -0.07133692 -0.2520358
000170 af 09 1f be b1 98 a3 3c ea 65 4b 3c 75 b5 8e be
       -0.15531038 0.01997027 0.012414435 -0.27872816
000180 68 3e 4f be 24 d7 ab 3d f1 23 28 3e 53 5f ed bd
       -0.2023865 0.08390644 0.1641996 -0.11590447
000190 ce c8 53 3d f4 fc 4a be a6 6f 37 3e 6c d8 72 be
       0.051705174 -0.19823056 0.17913684 -0.23715371
0001a0 a1 31 80 bd a0 a0 ea bd c4 29 2f bd f2 46 8b bd
       -0.06259466 -0.11456418 -0.04276444 -0.06800641
0001b0 c4 81 43 bd 46 40 53 be a2 f9 80 be 25 dd 93 be
       -0.047731176 -0.20629987 -0.25190455 -0.28879657
0001c0 b1 6d 00 3e cf ae 80 be af 8a 10 be 47 5d 19 3e
       0.12541844 -0.25133368 -0.14115404 0.14976989
0001d0 52 c4 2f be f2 e9 1c bd 51 d2 96 bd 9c 29 d5 3d
       -0.17164734 -0.038309045 -0.073643334 0.10408327
0001e0 d1 45 7b be 6b 41 a2 bd 43 b2 08 3e 79 ae da 3d
       -0.24538352 -0.07922634 0.13349251 0.10677809
0001f0 d2 9a 01 be 85 59 a1 3d 83 1f 09 3c e4 9b 85 be
       -0.12656716 0.078784026 0.008369329 -0.26095498
000200 69 61 54 be 7b bc 4a be 1f 25 45 3c c6 11 6d bc
       -0.20740284 -0.19798462 0.012032776 -0.01446957
000210 6a 4e e1 bd 5c 39 9b bd 38 b2 1f be d0 43 6f ba
       -0.110012844 -0.075793 -0.15595329 -0.00091272313
000220 76 fa 3b bd 9b 04 93 3c cb 54 07 3b cf 55 07 be
       -0.045893155 0.017946532 0.0020649906 -0.13216327
000230 70 d2 35 3e 1f 12 f4 3d 28 16 45 3e 89 db 05 bd
       0.17756057 0.11917519 0.19246733 -0.03268007
000240 26 2e b9 be 2a 87 9b 3e d4 08 8f bb fa a8 35 be
       -0.3616802 0.3037656 -0.004365066 -0.1774024
000250 cd ba 19 be c3 b5 37 3e 5c c5 5d be f9 62 6a 3e
       -0.15012665 0.1794043 -0.21657318 0.22889318
000260 a1 36 f2 bd 47 e1 f2 bd df c1 60 3e 34 69 a5 bd
       -0.11826826 -0.118593745 0.21948956 -0.080767065
000270 7c 01 9b 3e 72 b6 22 3d ca 04 4a 3e 06 89 ba bc
       0.3027457 0.039724775 0.1972839 -0.022770416
000280 7e 96 72 be ff 2d 55 3d e9 99 45 be 31 84 28 3d
       -0.2369022 0.05204582 -0.19296993 0.041141693
000290 aa 70 19 3e f9 48 a2 3e c1 f2 b3 bd 33 37 cc 3e
       0.14984384 0.316963 -0.08786536 0.39885864
0002a0 8f d2 4b bd e5 be 86 3e 34 e0 8a be ee 49 c4 bd
       -0.04976135 0.26317516 -0.27124178 -0.095844135
0002b0 56 ec 18 bb 9c 3d 47 be 5c a9 12 3c ee ba 58 bd
       -0.0023334227 -0.19457096 0.008951511 -0.052912645
0002c0 25 9b 33 be f0 80 86 bd 2d 30 9c be 16 0d 58 bd
       -0.17539652 -0.065675616 -0.30505505 -0.052746855
0002d0 b1 6b 9d bd 2b f7 55 3a 1f 7c 11 be c6 70 1d bc
       -0.07686556 0.0008162136 -0.14207505 -0.009609407
0002e0 4d 14 26 3e af c2 9c bc ee 64 01 3d 29 a3 33 3e
       0.16218682 -0.019135801 0.031590395 0.1754271
0002f0 a0 28 22 3e 60 e5 ca bd fd 92 03 3f 07 ed 38 3e
       0.1583581 -0.09907031 0.5139616 0.18059169
000300 67 5d f4 3b 57 52 de bd e9 29 fe 3d e2 09 91 bd
       0.0074574235 -0.10855549 0.124103375 -0.07081963
000310 19 d2 22 bd 41 a9 2d 3e 3f b4 c8 3d fa ba 44 be
       -0.039751146 0.16959096 0.09800004 -0.19211951
000320 51 b2 fb bd e9 77 e2 bd 45 b4 c4 be 6f e8 5f 3e
       -0.122898705 -0.11058027 -0.38418785 0.2186601
000330 9d 56 e6 bd 0f fe 9d 3e 3a 8c 9f 3e bf d1 3e bd
       -0.11246989 0.30857894 0.31161672 -0.04658675
000340 3c 09 51 3d 19 7b 11 3d 66 c3 6c bd 44 aa 0d 3b
       0.051034197 0.035517786 -0.057803534 0.0021616379
000350 24 99 63 be 72 60 72 3d 9b d8 55 bc bb 77 11 3c
       -0.22226387 0.05917401 -0.013052131 0.008878644
000360 f5 85 17 3e 1b 7d 73 3e bd 78 3a be 91 ce be 3e
       0.14797194 0.23778193 -0.1821012 0.37266973
000370 b7 e4 03 3f f1 fb 0c bf 14 43 96 bd 1b 20 34 3e
       0.51520866 -0.5507193 -0.07337013 0.17590372
000380 dc e6 a4 bd 0a 12 29 be 3d c7 2f 3e fc 77 d9 3e
       -0.080518454 -0.16510788 0.17165847 0.42474353
000390 bc 3b 91 3e 81 5b 15 be 14 c5 6c 3e 23 d7 c3 3e
       0.28365886 -0.14585687 0.23122054 0.38250074
0003a0 f2 8e cd be 23 ac 23 be 5e 52 71 3d ae bb 2c 3e
       -0.4014812 -0.15983634 0.058916442 0.16868469
0003b0 20 da 1e be 64 2d ed 3e 47 b5 c8 3d 19 f0 04 3e
       -0.15512896 0.46323693 0.09800201 0.12982215
0003c0 41 85 5d bd 8c 1e 5d 3e 58 22 75 be be 5e 3c bd
       -0.05408216 0.21593684 -0.23938882 -0.04598879
0003d0 4e 61 70 3c 56 3c 15 be 6f d9 d7 3d 9a 13 9a bc
       0.014671637 -0.14573798 0.10539519 -0.018808175
0003e0 40 58 f2 3d cd fa 35 3e b4 e0 18 be ee 07 45 be
       0.118332386 0.17771454 -0.14929467 -0.19241306
0003f0 34 46 05 be df 5b 4d be 1f c5 17 be ac 25 bb 3e
       -0.13015062 -0.20054577 -0.1482129 0.3655218

fc2.bias f4 [64]
000000 d9 3a 1e be 9a 6d bf 3e 00 cc a8 3d 42 47 8a 3b
       -0.15452136 0.37388307 0.08242035 0.0042199204
000010 0f d3 85 3e 5f 06 90 be e3 20 59 be 85 3a de bd
       0.26137587 -0.2812986 -0.21203952 -0.108510055
000020 2a 1f d5 bd f0 4d 24 bd ac 66 3d 3c 55 e9 d5 bd
       -0.10406335 -0.04011339 0.011560123 -0.10444895
000030 dc 80 3d 3e 6d 5d f5 bd 2a 94 ae bd 8a 1b 22 3e
       0.18506187 -0.1198071 -0.08524354 0.15830818
000040 76 1a 35 3e 21 5c 21 be 1d 1b eb bd fb b4 e1 bd
       0.17685875 -0.157578 -0.11479781 -0.110208474
000050 6c 91 5a 3e 87 12 33 3e d3 c5 8f bd 28 05 9e be
       0.21344537 0.17487536 -0.07020154 -0.3086331
000060 fb 6b 98 be 5e bd 09 be bb a6 e7 3d 89 fc 87 be
       -0.29769883 -0.13451144 0.11311098 -0.26559857
000070 d3 e5 3f be 53 92 1a bb 1f 5e 9e 3c a6 2b ce be
       -0.18740015 -0.0023585751 0.01933199 -0.40267676
000080 56 e7 8c be ea 1b b1 bc 97 a9 23 3e 78 c5 9d bc
       -0.27520245 -0.021619756 0.15982662 -0.0192592
000090 e7 13 2b be c2 1f 87 be b8 46 ba bd c0 6d c2 bd
       -0.16706811 -0.26391417 -0.0909552 -0.094935894
0000a0 1f bb 12 be 0a b4 ec 3d 80 0a 16 be aa a4 19 bc
       -0.14329194 0.11557777 -0.14652443 -0.009377638
0000b0 dd bb 7b bb 4c 59 29 be 28 88 7e be d3 7e 6e be
       -0.0038411536 -0.1653797 -0.24856627 -0.23290567
0000c0 be 6e 04 3e 28 a6 88 be 11 52 68 be 7d ce cd 3e
       0.1293287 -0.26689267 -0.22687556 0.401966
0000d0 e5 fc 36 3d 89 53 cd bd f0 8b 3d be d1 b8 27 be
       0.044674773 -0.10025699 -0.18510413 -0.16379096
0000e0 21 91 81 be 43 4f 7d be df 63 b7 3e 35 9c 8f 3d
       -0.25306037 -0.24737267 0.35818383 0.07012216
0000f0 4b e3 c8 bd 92 f1 9a 3e 98 05 2b bc f0 9d ac be
       -0.09808978 0.3026243 -0.010438345 -0.33714247

fc2b.weight f4 [1, 64]
000000 9c 44 1b bd 59 8f aa 3e 38 e5 ba bd d4 86 df be
       -0.037907228 0.3331249 -0.09125751 -0.43657553
000010 f1 04 4f 3e e2 d5 a4 3d c2 d8 a3 3e 38 da 23 be
       0.20216729 0.080486074 0.3200131 -0.16001213
000020 2c 12 a2 bd e6 6b 8f be 82 46 dd be 79 f2 43 3e
       -0.07913622 -0.28012007 -0.43217856 0.19135465
000030 1c 07 c4 3d da 58 9e 3e 82 07 37 bd bf 54 d0 3e
       0.095716685 0.30927163 -0.044684894 0.40689656
000040 9a cc 8a 3d c9 0e 47 3e 84 1f 19 3e 1e bc fd 3d
       0.06777306 0.19439234 0.14953429 0.12389396
000050 12 66 ac 3d 97 e9 0e 3e e6 3d 25 3e c1 8d 8a bd
       0.08417906 0.13956295 0.16136894 -0.06765319
000060 b9 77 22 3d 4a bc 57 3e 1a 3b 18 3e b5 62 24 be
       0.039664958 0.2106792 0.14866295 -0.16053279
000070 6e 00 7b bc 82 81 fb bd e7 05 12 3d ec 48 fa bd
       -0.015319927 -0.12280561 0.03565016 -0.1222094
000080 4c 83 af be 52 b7 5b 3e b5 6c cc 3d 2a 0a 0f 3e
       -0.3427986 0.2145665 0.09981672 0.13968721
000090 52 78 08 be cd bc ca bd 2f 70 85 3e d7 40 16 3e
       -0.13327149 -0.09899292 0.26062152 0.14673172
0000a0 48 7c 22 bc 05 7a 88 3e 11 7b b5 bd af a4 12 3e
       -0.009917326 0.26655594 -0.08861364 0.14320634
0000b0 ae 1e 2f 3e c4 f0 36 3e ad 26 86 3d e7 11 cb 3d
       0.17101547 0.17865282 0.065503456 0.09915524
0000c0 fd 42 14 3d ac 2c e5 3e 36 f4 72 be 14 08 87 3e
       0.036196698 0.44760644 -0.23725972 0.2637335
0000d0 3d 6c 8c 3e fc 6c d4 be 78 10 b3 3d 09 e3 48 bb
       0.2742633 -0.41489398 0.087433755 -0.0030652902
0000e0 d1 9a 45 be 57 43 71 3c 3a 73 a6 3e a4 04 f5 3d
       -0.19297339 0.014725528 0.32509786 0.11963776
0000f0 dc 3a be bd 10 2a 98 3e 5f c7 be 3d 2e ef 99 3e
       -0.0928857 0.2971959 0.09315371 0.30065292

fc3.weight f4 [4, 64]
000000 df 20 21 be dd 0f 4d bd 3a 36 1d be c2 ca e8 be
       -0.15735196 -0.050063957 -0.15352717 -0.45467192
000010 96 21 4d bd cd 55 96 bd 18 a9 d4 3d 98 b3 00 be
       -0.05008086 -0.07340584 0.103838146 -0.1256851
000020 d0 32 8d be 80 b5 d3 3c 25 5d 04 be 88 1d 8f be
       -0.2757783 0.025843382 -0.12926157 -0.27952218
000030 a7 ae 8c bd cb 4f c4 3c b5 0e 40 3e dd 27 44 3d
       -0.0686925 0.02396383 0.1875561 0.04788958
000040 a9 86 99 be 9c f8 c7 3c 1b 33 2a 3c 18 bd a5 3d
       -0.2998555 0.024410538 0.010388161 0.080927074
000050 b6 c8 63 3c 36 62 12 bc 72 30 55 3e da 6d de bd
       0.013902834 -0.008934548 0.20819262 -0.10860796
000060 cb 68 38 3e 75 57 35 3d ba 87 65 3d 88 4f b0 bd
       0.18008725 0.04427286 0.056037642 -0.086089194
000070 c1 e4 c4 bd f5 fb fc 3d f5 73 d1 3d 5b c7 5a bd
       -0.09613944 0.123527445 0.10227195 -0.053412776
000080 c7 2e f7 be 6f 1d 11 3e 6a 35 01 be 2c d9 e0 bd
       -0.48277876 0.14171384 -0.12618032 -0.10978922
000090 f3 08 80 be da 64 f2 3d c4 7f be 3d 88 33 16 bc
       -0.25006828 0.11835642 0.09301713 -0.009167559
0000a0 e9 1d 54 be 15 01 83 bd 74 65 88 3e 5c db dc bd
       -0.20714535 -0.06396691 0.26639903 -0.10784027
0000b0 62 2d 0c be 8c 0d 57 bd c3 80 f6 3c 95 60 8b bd
       -0.13689187 -0.052503154 0.030090695 -0.06805531
0000c0 61 e7 0b be f3 5e 23 3c c4 ed 3b be 41 d0 c9 bc
       -0.13662483 0.009971368 -0.18352419 -0.024635436
0000d0 65 6d 0b 3e 47 a4 b7 3e 9e 28 2d be fc 93 59 be
       0.1361595 0.3586752 -0.16910025 -0.21247858
0000e0 a3 78 a1 be 01 69 10 3e e9 a8 50 be 92 6f 27 3a
       -0.3153735 0.14102556 -0.20376934 0.00063871697
0000f0 a1 af 19 be e4 84 08 be 19 8a 3e 3d ad 76 e7 3b
       -0.15008403 -0.13331944 0.04651842 0.007063708
000100 4c e4 07 be 76 62 2d bb d5 2c ad 3c 8d 51 a7 3e
       -0.13270682 -0.0026456392 0.021139542 0.32679406
000110 13 4a 75 3d 8f 7f 63 bd 48 2e 21 3d e2 7c d2 be
       0.059885096 -0.05554157 0.039350778 -0.41110903
000120 b6 a6 43 bd 88 96 d1 be 7e 42 44 bc 01 cb 54 3e
       -0.04776641 -0.4093516 -0.011978744 0.20780565
000130 59 df 30 3d ec f5 54 3d c6 02 e0 3c 04 1d ef 3d
       0.04318175 0.051992342 0.027345072 0.11675456
000140 ac 04 0a be b1 28 b9 bc 11 43 c8 3d f9 4d 33 3e
       -0.13478345 -0.022602411 0.09778417 0.17510213
000150 b9 fc 9f 3d 3b b4 9d bd 52 21 99 bb 69 fb 12 bd
       0.07811875 -0.07700392 -0.0046731615 -0.035884295
000160 c4 a0 f8 bd 06 6c 0a 3d 54 12 54 bd 5b 36 9c 3d
       -0.121400386 0.033794425 -0.05177529 0.07627555
000170 88 47 78 3b 25 94 d5 bb 24 c0 09 bd d6 81 8d 3c
       0.0037884433 -0.0065179043 -0.033630505 0.017273825
000180 c1 33 0e 3e fd d5 d4 3d 15 5b ee 3d 28 37 9d bd
       0.1388693 0.103923775 0.11638466 -0.07676536
000190 ba b7 99 3e 90 ce dc bd 0a ad f9 3d df f2 72 3e
       0.30022985 -0.10781586 0.12191208 0.2372546
0001a0 d4 96 1a bd 6c cb 3d 3e 9c 8d 42 bd d3 f6 ab bd
       -0.037741497 0.1853463 -0.04749833 -0.08396687
0001b0 12 6d 90 bb 3c bc 1d bd 22 6a 53 bd a4 5a f6 bc
       -0.0044075334 -0.038509592 -0.051614888 -0.030072518
0001c0 97 05 62 bd 3c 61 8c bd 80 cd 16 3e 0c 00 f8 bd
       -0.055181112 -0.068544835 0.1472683 -0.12109384
0001d0 84 48 4d 3d 8e cc 28 3c 8e 0c e8 bd cf 01 47 be
       0.050117984 0.010302676 -0.113305196 -0.19434284
0001e0 45 05 b2 3d fa 7c 6a 3d 25 a3 24 be 0c fa 2f 3d
       0.08692411 0.057248093 -0.1607786 0.042963073
0001f0 24 af 01 bd 6c 21 8f bd 57 47 da bd 19 75 06 bb
       -0.031661168 -0.069887966 -0.10658138 -0.0020516573
000200 91 1f 1c bd 69 e3 a4 bd 30 c5 f6 bc 82 dc 6c bd
       -0.03811604 -0.080511875 -0.030123323 -0.05782748
000210 78 f6 84 bd 6e 8f 64 bd 95 02 dd bd 0c 41 aa bd
       -0.06492323 -0.055800848 -0.10791508 -0.08313188
000220 ff 22 9e be b7 ce c0 3c 02 93 f6 3e a6 8c 88 be
       -0.30886075 0.02353607 0.48159033 -0.26669806
000230 51 41 ca 3d 4a 4d d7 3e 39 45 64 be 83 4d cb bd
       0.09875739 0.42051154 -0.22292031 -0.099268936
000240 47 6a 43 3d 93 49 cd bc 59 77 cc bd e5 9b af bd
       0.047708776 -0.025059497 -0.09983701 -0.085746564
000250 57 bb ca bc 8c 25 37 3e 52 55 91 3d af 6a 5a 3d
       -0.024747534 0.17885417 0.07096352 0.053324398
000260 7b e8 48 3e f1 ca b5 bd fc f0 75 3d fa 9d 69 be
       0.19619934 -0.088765986 0.060044274 -0.2281417
000270 14 8f 3e 3e a8 2d f8 bd 97 7e e2 bd 75 34 cd bd
       0.18609267 -0.12118083 -0.11059301 -0.10019771
000280 21 50 0a be c3 f4 47 bd 7f ab 4f be f1 f4 71 3d
       -0.13507129 -0.048817407 -0.20280264 0.059071485
000290 14 b5 93 3d 2d 06 b2 3e e9 af 8c 3c f4 4d 9c be
       0.07212272 0.34770337 0.017173724 -0.30528224
0002a0 1d ed 35 3e 72 31 cd 3e 94 0c a1 be e1 81 ba 3d
       0.17766233 0.40076786 -0.3145491 0.09106804
0002b0 bb bf 36 bd 86 ab 42 3e 10 4d 6f bd df fb 4c 3e
       -0.044616442 0.19010743 -0.058423102 0.20017956
0002c0 08 7d 8e bd 59 b3 d2 3e a2 fe 35 3e 11 dc 91 bb
       -0.069574416 0.41152456 0.17772916 -0.004451283
0002d0 d9 7c 56 3c c6 8d 6a be e9 32 07 3e 59 dd 8b bd
       0.013091289 -0.22905645 0.13203014 -0.06829328
0002e0 9c 52 df 3b b5 51 4f be 76 7e 35 be 2c 10 ad bd
       0.0068152677 -0.20246013 -0.17724022 -0.0845035
0002f0 8a 1f 3b be ee fd 55 bd 7c 7b 77 3d 89 94 3b 3e
       -0.1827375 -0.05224412 0.0604205 0.1831838
000300 eb 63 73 3e 3f c9 7a bd 24 38 ae be f3 2f 8f be
       0.23768584 -0.06122708 -0.34027207 -0.2796627
000310 b0 81 0d be 96 15 04 3e 18 bd 07 3e 46 51 28 3f
       -0.13819003 0.1289886 0.13255727 0.65749013
000320 66 97 51 be 5e aa 21 3a 5d 21 32 be 0c 14 e3 3d
       -0.2046791 0.0006167049 -0.1739554 0.11087808
000330 3e b8 8b bd 87 e1 69 bd 5e b0 56 3e 01 9b 0c 3e
       -0.06822251 -0.057099845 0.20965716 0.13731004
000340 4b 1c e2 bc 16 ae d8 3d 62 b0 53 3e 5e 40 05 be
       -0.027601382 0.10580079 0.20672753 -0.13012835
000350 57 83 85 3d b4 ef 3f 3c 91 ce 93 3e 61 fa a3 be
       0.06519192 0.0117148645 0.28868535 -0.3202696
000360 1f de 6f 3e f4 80 84 3e 5a 4c 52 bc 04 8d bf 3e
       0.23424576 0.25879633 -0.012835586 0.37412274
000370 ed de 9f be f2 57 a3 bd f8 b5 02 be 58 cf 6e 3e
       -0.31224766 -0.079757586 -0.12764728 0.23321283
000380 e9 d4 fb bd 79 cf 85 bd af d8 ba bd 23 80 3c 3e
       -0.12296469 -0.06533713 -0.0912336 0.18408255
000390 47 8f 07 3e d5 15 5b be f6 36 ed bd 79 a3 1d 3e
       0.1323825 -0.21395047 -0.115827486 0.15394391
0003a0 00 63 05 be de 5e bc be f1 f5 c8 3b 4d 25 bf 3d
       -0.13026047 -0.36791128 0.006132834 0.093332864
0003b0 84 22 c0 3d 73 b7 a8 3e 6a 38 eb be 63 33 46 bd
       0.09381583 0.3295246 -0.45941478 -0.04838885
0003c0 60 99 87 be 8a 53 03 3e 1f 71 80 3e c5 b2 eb bd
       -0.26484203 0.12824836 0.25086305 -0.11508707
0003d0 aa ee 8f 3c b1 c1 82 be f5 c1 93 bd fc 62 b6 bb
       0.017569859 -0.255384 -0.07214729 -0.005565999
0003e0 2f ab 5e 3e ba 33 58 3e 79 94 1c be c0 3a 0e be
       0.21744989 0.21113482 -0.15291013 -0.13889599
0003f0 1c 58 8a 3c 83 43 81 bd e5 36 a5 be ac 87 8d bd
       0.016887717 -0.06311705 -0.32268444 -0.06910643

fc3.bias f4 [4]
000000 3a 1c 98 3d 47 10 58 be 28 94 cf bd 58 c8 ca bc
       0.07427259 -0.2109996 -0.101356804 -0.024753734

feature_stream.0.weight f4 [64, 37]
000000 10 02 56 bf 4c c9 9a bc 31 f9 cd 3d 70 99 fb bd
       -0.835969 -0.018894814 0.10057295 -0.12285125
000010 bb 71 07 bf db 67 01 bf a7 54 97 3d 66 59 11 3e
       -0.52907914 -0.50549096 0.07389193 0.14194259
000020 ed e8 2d 3d 4e 4d d1 3d 88 fc 88 be f7 f0 91 be
       0.042458463 0.10219823 -0.26755166 -0.28504154
000030 55 46 a2 bb df 2a 58 be 45 11 3d be 50 ed 44 3e
       -0.004952232 -0.21110104 -0.18463619 0.19231153
000040 1c 03 b3 3d 0d 7a 0d be 6a 2f ec 3d 20 05 a7 bd
       0.087408274 -0.1381609 0.11532481 -0.081552744
000050 41 3d cd 3b 19 e9 50 3d 8b 3d 0a 3e 5e 0a 4c be
       0.0062634056 0.05100355 0.1350004 -0.1992583
000060 4a 43 f2 3d ac b7 9e be 74 29 0f 3e 5a 21 51 3e
       0.118292406 -0.30999506 0.13980657 0.20422879
000070 9c cd 23 bf 52 c0 64 be fc 8e ac be ad 2b 8b bd
       -0.6398561 -0.2233899 -0.33702838 -0.0679544
000080 99 42 de bd 5e c6 01 bd 7e c7 97 3e 21 b2 f4 3b
       -0.10852546 -0.03168332 0.29644388 0.0074675237
000090 32 c8 4e bd 71 74 fb 3c 89 94 5a 3d 6a 36 d5 bc
       -0.05048389 0.030695172 0.05336431 -0.026026923
0000a0 ad 25 c6 3d 77 dc 3b be 1f 68 d0 be 9a f8 0c be
       0.09675155 -0.1834582 -0.40704438 -0.13766709
0000b0 ca 49 ac bd ee 15 3a 3e af e2 2f 3f 8c a2 00 be
       -0.08412512 0.18172428 0.68705267 -0.12562007
0000c0 f6 38 d1 3c ce 8b 2c bd ae f2 60 3d 91 5b 2c 3b
       0.025539856 -0.042125516 0.054918937 0.0026299695
0000d0 a2 d3 5b bd 88 aa 2d bd 41 6d 3c 3d d2 5b e2 3d
       -0.053668626 -0.04239896 0.04600263 0.110526696
0000e0 6d ef 6b 3e b4 75 85 be a9 df 4c be 02 d8 9b bd
       0.23040552 -0.26066363 -0.20007195 -0.076095596
0000f0 c6 5d 25 ba 1c 3b 48 3e d5 41 18 be d8 3b 95 bd
       -0.0006308224 0.19553798 -0.14868863 -0.07286805
000100 35 68 39 bd 3e 62 18 3e af a1 cc 3e 21 d3 42 bd
       -0.045265395 0.14881226 0.39967105 -0.04756463
000110 a5 e2 16 be 38 aa 70 3d cb 73 4e 3e 18 91 de 3e
       -0.14734896 0.058756083 0.20161359 0.43470073
000120 e4 7d 0e 3d b4 82 d7 bb 81 15 98 bd ba 72 65 bd
       0.034788027 -0.0065768603 -0.074259765 -0.056017615
000130 6b 5d 16 3e b8 08 eb 3d 54 88 66 3e f6 d9 7b bf
       0.14684074 0.11476272 0.22512943 -0.98379457
000140 69 fd bd bd 42 7e 40 3e 0b d4 b4 3d 68 a6 a2 be
       -0.0927685 0.18798164 0.088295065 -0.31767583
000150 9b 05 24 be 82 d1 3a be 23 9e 39 bd 41 f7 f9 3d
       -0.16017763 -0.18243983 -0.045316827 0.12205363
000160 9f 37 99 3e 40 f3 29 be 1a 62 1a 3e 4d 2c ea bd
       0.29925248 -0.16596699 0.15076485 -0.11434231
000170 f2 54 71 3e b0 2f 8d 3e e3 07 cd be f0 9a 68 bd
       0.2356756 0.27575445 -0.4004508 -0.056788385
000180 96 a6 2a 3b e0 e2 e5 bd ad 48 42 3e 62 f1 6d be
       0.0026039234 -0.112249136 0.18973036 -0.23236611
000190 8a fe 82 3e 87 de 9f bd ad 10 56 be aa 70 bb 3c
       0.25584823 -0.078061156 -0.20904799 0.02288087
0001a0 3e 39 e0 be 38 c9 a3 bd ce 63 fe bc bc 5f 3a be
       -0.43793672 -0.07997364 -0.03105345 -0.18200582
0001b0 92 ad a7 bd da 9d 80 3c 13 34 88 3c 76 43 1e 3e
       -0.08187403 0.01570027 0.016626393 0.15455422
0001c0 96 5e c0 be 2f bd 97 3d bd 5b 2f 3d a0 36 bf bd
       -0.37572163 0.07409131 0.042812098 -0.09336591
0001d0 0e df b1 be e9 d4 71 be 84 58 ce 3c 41 2f 75 be
       -0.3474049 -0.23616375 0.025188692 -0.23943807
0001e0 a4 bf 9e bd 16 05 2b 3e e6 66 ad be 29 6f 7f be
       -0.07751396 0.16701159 -0.33867568 -0.24944748
0001f0 3a 18 d6 be ed c0 8e bd f4 6b 18 3e e6 a5 02 bf
       -0.41815358 -0.069703914 0.14884931 -0.5103439
000200 f4 99 db bd c8 78 38 bf 9a a0 1f bf dd 18 dc bd
       -0.107227236 -0.720593 -0.62354434 -0.1074693
000210 06 b0 af be c7 e2 10 bc 5e e9 24 3e fb c9 ef 3b
       -0.34313983 -0.00884313 0.16104648 0.007317779
000220 35 d1 63 bf f2 48 1f bf f0 fd 2c 3e 82 32 1d 3e
       -0.889911 -0.6222068 0.16893744 0.15351298
000230 f8 91 f7 bb d4 a7 a0 3d df 37 e2 bd 51 40 3d 3e
       -0.0075552426 0.07844511 -0.11045813 0.18481566
000240 58 54 29 bf f2 54 da be d3 b6 0b be 98 80 e7 3c
       -0.66144323 -0.42642933 -0.1364396 0.02825956
000250 5e f7 03 be 80 c7 95 bd be 7e 8b bc 3c 50 4c be
       -0.12887332 -0.07313442 -0.017028209 -0.19952482
000260 48 68 1a 3d 9a 4d cb 3e 82 d0 48 3d 8c 20 f5 be
       0.037697107 0.39707643 0.049026974 -0.47876394
000270 a7 e8 2e bf 1a 0a d4 bf 4d a1 06 3d 47 d1 90 bd
       -0.6832375 -1.6565583 0.032868672 -0.070711665
000280 2c 1c 16 bd a6 d3 7f bd 92 5a a0 bd 4a 5f c6 bd
       -0.03664796 -0.062457703 -0.07829775 -0.09686144
000290 70 d9 4f bd 82 22 28 bd 9d de 29 bc 9f 1b 20 3e
       -0.050744474 -0.041048534 -0.010368017 0.15635537
0002a0 d9 dd 7a bd 25 60 d6 bc c1 e8 e1 bc 21 40 bf 3d
       -0.061246727 -0.026168892 -0.027576806 0.093384035
0002b0 6f 19 7b 3c 61 7f 56 bd 3e 4b 80 bd 6a 81 f4 3d
       0.015325888 -0.05236757 -0.06264351 0.11938746
0002c0 de 66 eb 3d 11 2d 80 3e 0d 7d eb bc 0d 98 77 3c
       0.1149423 0.25034383 -0.028746152 0.015111935
0002d0 96 60 52 3d a6 90 74 3e bb 71 4e 3e 29 7d c5 3b
       0.051361643 0.23883304 0.20160572 0.006026883
0002e0 f5 12 13 3c 54 0a 7c 3d 4c 08 09 be 4a 04 0e be
       0.008976688 0.061533287 -0.13382071 -0.13868824
0002f0 30 33 54 be 94 79 2a be 94 31 e0 bb d9 79 e3 3d
       -0.20722651 -0.16647941 -0.0068418477 0.11107225
000300 d5 c7 c4 bd f6 b6 d9 be 3b f7 7f bf 06 08 85 bd
       -0.096084274 -0.425224 -0.9998662 -0.06495671
000310 cf ef cb 3d 4c 9d b2 be 38 2b 21 be cf fd cb be
       0.09957849 -0.34885633 -0.15739143 -0.39842078
000320 8a 7b 7c be 34 ee 52 3e 76 1b 9e 3d 05 14 50 be
       -0.24656501 0.2059868 0.077200815 -0.20320137
000330 06 cb 4e bf 47 6a 90 3e 3b e2 5e be cc d5 b3 bd
       -0.8077854 0.28206083 -0.21765988 -0.08781013
000340 32 d9 a6 be c9 d9 c8 bf 18 87 2a be a4 dc ac 3e
       -0.32587582 -1.5691463 -0.16653097 0.33762085
000350 33 0c 94 3d 04 a4 4e bf 07 f0 b6 bf 05 24 52 3d
       0.07228889 -0.8071902 -1.4292 0.051303882
000360 8d 56 e1 be 79 6f 02 3e 67 b8 57 be a8 a7 de bf
       -0.44011346 0.12737836 -0.21066438 -1.7394915
000370 70 25 c4 3c 88 d6 36 3d 47 76 0f 3e 26 6a 8c 3a
       0.023943633 0.044638187 0.14009963 0.0010712787
000380 c7 7e bf bc 16 be 30 3c d3 93 a6 be 5e 7c 75 be
       -0.023375882 0.0107875075 -0.32534656 -0.23973224
000390 f6 43 48 3d 06 ed e4 3d d2 e6 b7 be e1 24 2c 3c
       0.048892938 0.11178021 -0.3591829 0.0105068395
0003a0 f1 bb 30 3e 96 12 f6 bc 49 02 e3 3d 6f 72 12 3d
       0.17259194 -0.03003816 0.1108442 0.035753664
0003b0 c6 42 1b be 45 80 9a 3d c2 ed 23 3d 1e a8 d5 bc
       -0.15162191 0.07543997 0.040021665 -0.026081141
0003c0 32 3f 97 ba fd 60 b9 3d 6f ea 92 be ce 12 2a bd
       -0.0011539219 0.09051702 -0.28694484 -0.04152184
0003d0 71 6d e6 3b c6 06 80 3e 7f 79 cc 3c 55 2e b9 be
       0.0070320894 0.25005168 0.024960278 -0.3616816
0003e0 9b 1d 7a 3d 1e 69 b5 bd df e6 c8 bc dd a8 82 3d
       0.06106339 -0.0885794 -0.02452415 0.06379864
0003f0 80 16 73 3e 21 5a fb be 86 53 0b bf af 26 db be
       0.23739052 -0.490922 -0.5442432 -0.4280295

feature_stream.0.bias f4 [64]
000000 45 01 f9 3b 45 ad b7 bd f5 8a 39 be 1e de 08 be
       0.0075990283 -0.089685954 -0.18119414 -0.13365981
000010 5b 0b 1d 3e 2a e1 63 bd c0 8d 22 be 33 4f dc bd
       0.15336363 -0.055634655 -0.15874386 -0.107572936
000020 44 db ae 3d 9f c2 3e be 6d 55 a9 3d 8e 64 6c 3e
       0.08537915 -0.1862893 0.08268247 0.23085234
000030 8c 71 0b 3e 34 6c 06 bd a9 2d 41 be 26 c2 69 be
       0.13617533 -0.032818034 -0.18865074 -0.22827968
000040 9c cc 5c bc 37 9a bb bb 61 4a a9 3c 5e a9 96 be
       -0.013476517 -0.005725171 0.02066535 -0.29426092
000050 78 dc 85 be a0 94 22 bd 2e 5d a0 bd c3 b3 de bd
       -0.26144767 -0.03969252 -0.078302726 -0.108741306
000060 02 43 07 be d5 ba 75 3e 1c a1 86 bd e5 c3 a1 be
       -0.13209155 0.23997052 -0.06573698 -0.31594768
000070 21 4d 20 3e e9 a5 ad 3d ef 18 70 bd 97 cf 85 be
       0.15654422 0.084789105 -0.05861753 -0.2613494
000080 9b 16 0f 3e e4 b8 fe bd 59 cb 54 be f6 c3 20 bd
       0.13973467 -0.12437609 -0.20780696 -0.039249383
000090 e2 a0 5d be a9 5e 3a bc e2 68 82 be e3 7a b0 bd
       -0.21643403 -0.011375108 -0.25470644 -0.08617189
0000a0 19 8f 13 be 40 cb 9c bd cc 40 14 be 8d fb a4 3d
       -0.14410056 -0.07655954 -0.14477843 0.08055792
0000b0 86 c5 a6 bd fa 51 6c be 40 cd a8 3d 9a 66 54 be
       -0.08143143 -0.23078147 0.08242273 -0.20742264
0000c0 3d d3 70 be 2d 7e 01 bd 9b 4d 3e be c7 1f 5a bd
       -0.23518081 -0.03161447 -0.18584292 -0.05325296
0000d0 32 b9 99 3c cc 72 6b bc 6c 33 48 be b1 3b 8d be
       0.018765066 -0.014370631 -0.19550866 -0.27584603
0000e0 89 31 b9 bd 04 b2 29 be 67 49 93 bd 2a 0a 61 be
       -0.09042651 -0.16571814 -0.07191735 -0.21976534
0000f0 0b dd a1 be 57 5f 3f bc 7a 1e 8d 3d 9a 5c 8d bd
       -0.31613955 -0.011680446 0.068905786 -0.06902428

feature_stream.2.weight f4 [64, 64]
000000 8c a6 8c bd 30 16 54 3e 1e f8 4e 3d d9 30 5a 3e
       -0.06867704 0.20711589 0.05052959 0.21307696
000010 c4 70 36 3e 2b 56 e7 3d 7d 69 45 3e b7 4b f6 3c
       0.17816454 0.11295732 0.19278522 0.0300654
000020 3c e6 21 3e 72 88 0f 3e 9c ba 07 3e ab c3 43 bd
       0.15810484 0.14016894 0.1325478 -0.047794025
000030 36 98 57 be 9f b2 bd 3e 3b 43 e0 bd c5 d6 2c be
       -0.21054158 0.3705034 -0.10950323 -0.16878803
000040 79 fc 91 bc e6 96 0e be 5f 94 91 3d 18 e0 95 3d
       -0.017820584 -0.1392475 0.07108378 0.07318133
000050 05 69 c3 3d 9e 7f 41 be ae 3f 34 3e a8 d6 01 3e
       0.09541515 -0.18896338 0.17602417 0.12679541
000060 61 e0 f0 bd bb c8 22 3e 5b f7 e1 3c 3f 15 9b bd
       -0.11761547 0.15896885 0.027583769 -0.07572412
000070 59 c7 2c 3c 91 74 4b bd 71 b6 a3 3d ba 55 88 3e
       0.010545575 -0.049671713 0.07993782 0.26627904
000080 ad 61 3a 3e 8e 73 64 3d a3 9c f5 3d 25 ed 8d bc
       0.18201323 0.055774264 0.11992767 -0.017324993
000090 77 fe 89 bd 06 45 2f 3d a0 d7 52 3e 84 7e b4 bd
       -0.067379884 0.042790435 0.20590067 -0.088131934
0000a0 2f 7c 56 be 8e 24 1f be 25 ed f7 3d 42 27 6b be
       -0.2094581 -0.15541288 0.121057786 -0.22964194
0000b0 86 51 a7 3d 7b bd 34 3e 7c 64 24 be 19 0b 17 3e
       0.08169846 0.17650406 -0.16053957 0.14750327
0000c0 52 70 85 bd 11 fe ef bc 38 d4 a0 3d b4 f9 84 3d
       -0.06515564 -0.029295953 0.078529775 0.064929396
0000d0 3a b7 8c 3d 5b e7 3a be 3a bc ed 3d cc 0e aa 3d
       0.06870885 -0.18252318 0.11608167 0.083036035
0000e0 42 d6 63 be d9 46 0e 3e 22 ff 73 be 12 a3 79 3d
       -0.22249702 0.13894214 -0.23827794 0.06094653
0000f0 cc 43 1f 3d ee df 92 3d c7 2f a1 bc da 90 d3 bd
       0.038883016 0.071716174 -0.019676102 -0.103303626
000100 13 1a 01 3d 62 38 4c 3e fb c6 11 3e e1 97 c6 bd
       0.031519007 0.19943383 0.14236061 -0.09696937
000110 1e 1b 97 3e d7 c8 d2 bd 1c 8e 74 be 23 ca b1 bc
       0.29512876 -0.102922134 -0.23882335 -0.021702832
000120 ad e6 93 bd 23 85 75 bb 0d df bf bc 21 dc 06 bd
       -0.07221732 -0.003746339 -0.023421789 -0.032924775
000130 6c 6a 0f 3d 60 53 33 3e c2 af ec 3b de 9d 80 3d
       0.0350136 0.17512274 0.0072231004 0.06280111
000140 30 57 a5 3e 59 66 c4 bd 6a d0 1a be 3a 19 cb bd
       0.3229308 -0.09589834 -0.15118566 -0.09916921
000150 6e 08 82 3e 99 bf 34 bc bd 06 a4 3d 0d 31 8b be
       0.25397056 -0.011032009 0.08009098 -0.2718586
000160 de 77 2f be d8 c9 3f 3d 17 19 92 bd d6 0a 81 be
       -0.1713557 0.046823353 -0.07133692 -0.2520358
000170 af 09 1f be b1 98 a3 3c ea 65 4b 3c 75 b5 8e be
       -0.15531038 0.01997027 0.012414435 -0.27872816
000180 68 3e 4f be 24 d7 ab 3d f1 23 28 3e 53 5f ed bd
       -0.2023865 0.08390644 0.1641996 -0.11590447
000190 ce c8 53 3d f4 fc 4a be a6 6f 37 3e 6c d8 72 be
       0.051705174 -0.19823056 0.17913684 -0.23715371
0001a0 a1 31 80 bd a0 a0 ea bd c4 29 2f bd f2 46 8b bd
       -0.06259466 -0.11456418 -0.04276444 -0.06800641
0001b0 c4 81 43 bd 46 40 53 be a2 f9 80 be 25 dd 93 be
       -0.047731176 -0.20629987 -0.25190455 -0.28879657
0001c0 b1 6d 00 3e cf ae 80 be af 8a 10 be 47 5d 19 3e
       0.12541844 -0.25133368 -0.14115404 0.14976989
0001d0 52 c4 2f be f2 e9 1c bd 51 d2 96 bd 9c 29 d5 3d
       -0.17164734 -0.038309045 -0.073643334 0.10408327
0001e0 d1 45 7b be 6b 41 a2 bd 43 b2 08 3e 79 ae da 3d
       -0.24538352 -0.07922634 0.13349251 0.10677809
0001f0 d2 9a 01 be 85 59 a1 3d 83 1f 09 3c e4 9b 85 be
       -0.12656716 0.078784026 0.008369329 -0.26095498
000200 69 61 54 be 7b bc 4a be 1f 25 45 3c c6 11 6d bc
       -0.20740284 -0.19798462 0.012032776 -0.01446957
000210 6a 4e e1 bd 5c 39 9b bd 38 b2 1f be d0 43 6f ba
       -0.110012844 -0.075793 -0.15595329 -0.00091272313
000220 76 fa 3b bd 9b 04 93 3c cb 54 07 3b cf 55 07 be
       -0.045893155 0.017946532 0.0020649906 -0.13216327
000230 70 d2 35 3e 1f 12 f4 3d 28 16 45 3e 89 db 05 bd
       0.17756057 0.11917519 0.19246733 -0.03268007
000240 26 2e b9 be 2a 87 9b 3e d4 08 8f bb fa a8 35 be
       -0.3616802 0.3037656 -0.004365066 -0.1774024
000250 cd ba 19 be c3 b5 37 3e 5c c5 5d be f9 62 6a 3e
       -0.15012665 0.1794043 -0.21657318 0.22889318
000260 a1 36 f2 bd 47 e1 f2 bd df c1 60 3e 34 69 a5 bd
       -0.11826826 -0.118593745 0.21948956 -0.080767065
000270 7c 01 9b 3e 72 b6 22 3d ca 04 4a 3e 06 89 ba bc
       0.3027457 0.039724775 0.1972839 -0.022770416
000280 7e 96 72 be ff 2d 55 3d e9 99 45 be 31 84 28 3d
       -0.2369022 0.05204582 -0.19296993 0.041141693
000290 aa 70 19 3e f9 48 a2 3e c1 f2 b3 bd 33 37 cc 3e
       0.14984384 0.316963 -0.08786536 0.39885864
0002a0 8f d2 4b bd e5 be 86 3e 34 e0 8a be ee 49 c4 bd
       -0.04976135 0.26317516 -0.27124178 -0.095844135
0002b0 56 ec 18 bb 9c 3d 47 be 5c a9 12 3c ee ba 58 bd
       -0.0023334227 -0.19457096 0.008951511 -0.052912645
0002c0 25 9b 33 be f0 80 86 bd 2d 30 9c be 16 0d 58 bd
       -0.17539652 -0.065675616 -0.30505505 -0.052746855
0002d0 b1 6b 9d bd 2b f7 55 3a 1f 7c 11 be c6 70 1d bc
       -0.07686556 0.0008162136 -0.14207505 -0.009609407
0002e0 4d 14 26 3e af c2 9c bc ee 64 01 3d 29 a3 33 3e
       0.16218682 -0.019135801 0.031590395 0.1754271
0002f0 a0 28 22 3e 60 e5 ca bd fd 92 03 3f 07 ed 38 3e
       0.1583581 -0.09907031 0.5139616 0.18059169
000300 67 5d f4 3b 57 52 de bd e9 29 fe 3d e2 09 91 bd
       0.0074574235 -0.10855549 0.124103375 -0.07081963
000310 19 d2 22 bd 41 a9 2d 3e 3f b4 c8 3d fa ba 44 be
       -0.039751146 0.16959096 0.09800004 -0.19211951
000320 51 b2 fb bd e9 77 e2 bd 45 b4 c4 be 6f e8 5f 3e
       -0.122898705 -0.11058027 -0.38418785 0.2186601
000330 9d 56 e6 bd 0f fe 9d 3e 3a 8c 9f 3e bf d1 3e bd
       -0.11246989 0.30857894 0.31161672 -0.04658675
000340 3c 09 51 3d 19 7b 11 3d 66 c3 6c bd 44 aa 0d 3b
       0.051034197 0.035517786 -0.057803534 0.0021616379
000350 24 99 63 be 72 60 72 3d 9b d8 55 bc bb 77 11 3c
       -0.22226387 0.05917401 -0.013052131 0.008878644
000360 f5 85 17 3e 1b 7d 73 3e bd 78 3a be 91 ce be 3e
       0.14797194 0.23778193 -0.1821012 0.37266973
000370 b7 e4 03 3f f1 fb 0c bf 14 43 96 bd 1b 20 34 3e
       0.51520866 -0.5507193 -0.07337013 0.17590372
000380 dc e6 a4 bd 0a 12 29 be 3d c7 2f 3e fc 77 d9 3e
       -0.080518454 -0.16510788 0.17165847 0.42474353
000390 bc 3b 91 3e 81 5b 15 be 14 c5 6c 3e 23 d7 c3 3e
       0.28365886 -0.14585687 0.23122054 0.38250074
0003a0 f2 8e cd be 23 ac 23 be 5e 52 71 3d ae bb 2c 3e
       -0.4014812 -0.15983634 0.058916442 0.16868469
0003b0 20 da 1e be 64 2d ed 3e 47 b5 c8 3d 19 f0 04 3e
       -0.15512896 0.46323693 0.09800201 0.12982215
0003c0 41 85 5d bd 8c 1e 5d 3e 58 22 75 be be 5e 3c bd
       -0.05408216 0.21593684 -0.23938882 -0.04598879
0003d0 4e 61 70 3c 56 3c 15 be 6f d9 d7 3d 9a 13 9a bc
       0.014671637 -0.14573798 0.10539519 -0.018808175
0003e0 40 58 f2 3d cd fa 35 3e b4 e0 18 be ee 07 45 be
       0.118332386 0.17771454 -0.14929467 -0.19241306
0003f0 34 46 05 be df 5b 4d be 1f c5 17 be ac 25 bb 3e
       -0.13015062 -0.20054577 -0.1482129 0.3655218

feature_stream.2.bias f4 [64]
000000 d9 3a 1e be 9a 6d bf 3e 00 cc a8 3d 42 47 8a 3b
       -0.15452136 0.37388307 0.08242035 0.0042199204
000010 0f d3 85 3e 5f 06 90 be e3 20 59 be 85 3a de bd
       0.26137587 -0.2812986 -0.21203952 -0.108510055
000020 2a 1f d5 bd f0 4d 24 bd ac 66 3d 3c 55 e9 d5 bd
       -0.10406335 -0.04011339 0.011560123 -0.10444895
000030 dc 80 3d 3e 6d 5d f5 bd 2a 94 ae bd 8a 1b 22 3e
       0.18506187 -0.1198071 -0.08524354 0.15830818
000040 76 1a 35 3e 21 5c 21 be 1d 1b eb bd fb b4 e1 bd
       0.17685875 -0.157578 -0.11479781 -0.110208474
000050 6c 91 5a 3e 87 12 33 3e d3 c5 8f bd 28 05 9e be
       0.21344537 0.17487536 -0.07020154 -0.3086331
000060 fb 6b 98 be 5e bd 09 be bb a6 e7 3d 89 fc 87 be
       -0.29769883 -0.13451144 0.11311098 -0.26559857
000070 d3 e5 3f be 53 92 1a bb 1f 5e 9e 3c a6 2b ce be
       -0.18740015 -0.0023585751 0.01933199 -0.40267676
000080 56 e7 8c be ea 1b b1 bc 97 a9 23 3e 78 c5 9d bc
       -0.27520245 -0.021619756 0.15982662 -0.0192592
000090 e7 13 2b be c2 1f 87 be b8 46 ba bd c0 6d c2 bd
       -0.16706811 -0.26391417 -0.0909552 -0.094935894
0000a0 1f bb 12 be 0a b4 ec 3d 80 0a 16 be aa a4 19 bc
       -0.14329194 0.11557777 -0.14652443 -0.009377638
0000b0 dd bb 7b bb 4c 59 29 be 28 88 7e be d3 7e 6e be
       -0.0038411536 -0.1653797 -0.24856627 -0.23290567
0000c0 be 6e 04 3e 28 a6 88 be 11 52 68 be 7d ce cd 3e
       0.1293287 -0.26689267 -0.22687556 0.401966
0000d0 e5 fc 36 3d 89 53 cd bd f0 8b 3d be d1 b8 27 be
       0.044674773 -0.10025699 -0.18510413 -0.16379096
0000e0 21 91 81 be 43 4f 7d be df 63 b7 3e 35 9c 8f 3d
       -0.25306037 -0.24737267 0.35818383 0.07012216
0000f0 4b e3 c8 bd 92 f1 9a 3e 98 05 2b bc f0 9d ac be
       -0.09808978 0.3026243 -0.010438345 -0.33714247
